fruit_classifier.tflite (tflite, 937292 bytes, 14 tensors)

arith.constant f4 [64]
0	0x3c7ef00f	0.015560164
1	0xbb96f6a8	-0.0046070404
2	0xbbf1b77b	-0.007376609
3	0xbafe977e	-0.001942381
4	0x3c17f530	0.009274766
5	0x3c6d0e93	0.014468807
6	0xbb0cc4ea	-0.0021479675
7	0xbbb26663	-0.0054443344
8	0x3a8c7e3e	0.0010718775
9	0xbb2eeb63	-0.0026690594
10	0xbbc3906c	-0.005968144
11	0xbb5da249	-0.0033818653
12	0xbb50015a	-0.0031739087
13	0xbb5d748a	-0.0033791387
14	0xbbbe09fd	-0.0057995305
15	0x3c99badf	0.018765865
16	0x3bc76471	0.0060849716
17	0x3a19bb1e	0.00058643695
18	0x3aff67b9	0.0019485868
19	0xbb695484	-0.0035603354
20	0xbab4840a	-0.0013772261
21	0xbc03077f	-0.007997393
22	0xbbc53b55	-0.006019036
23	0xbbb629f5	-0.005559201
24	0xb9951764	-0.00028436922
25	0x3a40ceed	0.0007355053
26	0xbb7592a6	-0.0037471442
27	0xbb68cfcb	-0.0035524245
28	0xbb50a4ba	-0.0031836466
29	0xbc13bd4d	-0.009017301
30	0x3b1fe409	0.0024397394
31	0xbbc63463	-0.0060487255
32	0x3c81a232	0.015824411
33	0x3bedd739	0.0072583226
34	0x3c5e77d4	0.013578374
35	0x3a36da2c	0.0006975259
36	0x3adf8824	0.0017054123
37	0xbb40c0b4	-0.0029411735
38	0xbc34ce32	-0.011035489
39	0xbbf5b926	-0.007498878
40	0xb8dc15e4	-0.00010494495
41	0xbb69722e	-0.0035621035
42	0x3c256ea8	0.010097183
43	0xbc351a72	-0.011053668
44	0xbb8590f2	-0.0040761167
45	0xbc1557d9	-0.009115183
46	0x3ae77557	0.0017658871
47	0x3c573e46	0.013137406
48	0x3c079f99	0.008277797
49	0xb893aee3	-7.0420814e-05
50	0xbbbdb96d	-0.0057899267
51	0x34c13000	3.5983976e-07
52	0x3c5eebdd	0.013606039
53	0xbc8e61f0	-0.017380685
54	0xbbc38c96	-0.005967687
55	0x3adecf0f	0.0016998964
56	0x3a9761ca	0.0011549529
57	0xbac86a69	-0.0015290502
58	0xbc0013a3	-0.007817182
59	0xbabd7c72	-0.0014456643
60	0x3b6c34f4	0.0036042305
61	0xbbb76a96	-0.005597423
62	0xba803e22	-0.0009784142
63	0xbc19d7c4	-0.009389821

arith.constant1 f4 [64]
0	0xbc21739f	-0.009854226
1	0xbaf6e1ad	-0.0018835567
2	0xbc1b9a48	-0.009497233
3	0x3b2652f0	0.0025379024
4	0xbbf6b4d3	-0.00752888
5	0xbc6ef027	-0.014583624
6	0xbbc14faf	-0.0058993916
7	0xbc101ec5	-0.0087963985
8	0xba81da9e	-0.0009907072
9	0x3a919927	0.0011108265
10	0x3b04883e	0.0020222808
11	0xbc016938	-0.007898621
12	0xbb9b436c	-0.004738262
13	0x3ba30a8d	0.004975623
14	0xbc032566	-0.008004522
15	0xbc1c43fd	-0.009537694
16	0xbb7830bc	-0.0037870845
17	0x3bddd84c	0.0067701694
18	0x3aae66e3	0.0013305809
19	0xbbbd923f	-0.005785256
20	0xbba219c1	-0.0049469178
21	0x3afd891e	0.0019343232
22	0xbba1025b	-0.004913611
23	0xbb30801d	-0.002693183
24	0xbb2cfc6c	-0.0026395572
25	0xbbbff378	-0.005857881
26	0xbbb25be8	-0.005443085
27	0x3c134cec	0.008990508
28	0xba562d68	-0.0008170218
29	0x3b732355	0.0037099917
30	0x3c06f7bb	0.0082377745
31	0xbbc18e05	-0.0059068226
32	0xb961ae4f	-0.00021522607
33	0xbbd00d2e	-0.0063492274
34	0x3b9e6aeb	0.004834523
35	0x3b14c7c1	0.002270207
36	0xbc4b267a	-0.01239931
37	0x3bfaa424	0.0076489616
38	0xbb8d0943	-0.0043040826
39	0xbc5bd1e7	-0.013416744
40	0xbbf7885b	-0.0075540966
41	0x3aff5b92	0.0019482246
42	0xbb1c4e24	-0.0023850286
43	0xbbdd1521	-0.0067469035
44	0xbbbf1011	-0.0058307727
45	0x3c1e971c	0.009679582
46	0x3c2a6006	0.01039887
47	0xbb7051ec	-0.0036669923
48	0xbae9a3f1	-0.0017825348
49	0xbb870095	-0.0041199424
50	0x3b503449	0.0031769446
51	0xb95659b2	-0.00020442044
52	0xbbccc503	-0.0062490716
53	0x3a15b48b	0.0005710802
54	0xbc3a5975	-0.011373867
55	0xbc49bd20	-0.012313157
56	0xbb92e8fa	-0.0044833394
57	0x3c67cc84	0.014147881
58	0xbb4cfc0c	-0.0031278161
59	0x3c1cc633	0.009568739
60	0x3970e27e	0.00022972559
61	0x3b252230	0.002519738
62	0xbb796c7e	-0.003805905
63	0x3a803b24	0.000978325

arith.constant2 f4 [64]
0	0xba9fc776	-0.0012190181
1	0xbba89cb8	-0.0051456355
2	0xbbe7183f	-0.007052451
3	0xbb97f930	-0.0046378598
4	0xbbea4e17	-0.0071504223
5	0xbc00ef0e	-0.007869495
6	0xbbf92ccd	-0.0076042176
7	0xbc0f3731	-0.008741186
8	0x3ba2f120	0.004972592
9	0x3b6b1cd7	0.0035875344
10	0x3c1424ac	0.009041946
11	0xbc1c88b7	-0.00955408
12	0xbc186fba	-0.009303981
13	0xbc157d3d	-0.009124097
14	0x3b6c20ca	0.0036030286
15	0xbb323f70	-0.0027198456
16	0xbc26c91b	-0.010179783
17	0xbb3262c6	-0.0027219518
18	0x3a838b8e	0.0010036097
19	0xbbd13460	-0.0063844174
20	0xb7ff0520	-3.0400755e-05
21	0xbc045bd8	-0.008078538
22	0x3bbff1e4	0.005857693
23	0xb5b8d300	-1.3770477e-06
24	0xbb528562	-0.003212296
25	0xbb2ef16c	-0.0026694192
26	0xbb3b9a49	-0.0028625897
27	0xbabd803e	-0.0014457775
28	0x3a645dfc	0.00087115145
29	0xbc373697	-0.011182449
30	0x3b17ffbb	0.0023193199
31	0xbb53203f	-0.0032215265
32	0xba289452	-0.0006430793
33	0xba607157	-0.0008561811
34	0xbb4e093e	-0.0031438614
35	0x3c13b97b	0.00901639
36	0xbb068be9	-0.002053017
37	0x3b83c7f5	0.0040216395
38	0x3b247f20	0.0025100186
39	0xba82da28	-0.0009983229
40	0x3c285eb6	0.010276487
41	0xbc1605d1	-0.00915666
42	0xbc28e047	-0.010307378
43	0xbbd3eedb	-0.006467683
44	0xbbe4f91d	-0.0069877044
45	0xbc1cd155	-0.009571393
46	0xbb5ce0bb	-0.0033703286
47	0xbbe6a8d6	-0.00703917
48	0xbb55e46f	-0.0032637378
49	0xbbc66889	-0.006054942
50	0xbbe8df38	-0.007106688
51	0xbaee0f4a	-0.0018162515
52	0x3b97e79d	0.0046357648
53	0x3c0d5a9c	0.00862756
54	0xba3d678d	-0.0007225208
55	0xba485007	-0.00076413195
56	0xbb5e9e55	-0.0033968885
57	0xbbf3e206	-0.0074427156
58	0xba81d656	-0.0009905796
59	0xbb479252	-0.0030452204
60	0xbc3447d4	-0.011003453
61	0xba590e41	-0.0008280017
62	0xbb65daaa	-0.003507296
63	0xbaa386c0	-0.0012476072

arith.constant3 f4 [64]
0	0xbbb9d2c5	-0.0056708776
1	0x3b0e6c3c	0.0021731993
2	0x3b1b3f58	0.002368888
3	0x3a1cab6f	0.00059764733
4	0xbbd55568	-0.0065104254
5	0xbaf2ad5b	-0.0018514799
6	0xbb8801b4	-0.0041505937
7	0xbb567f53	-0.00327297
8	0x3c1e2dec	0.009654503
9	0x3c0d0275	0.008606543
10	0x3b5c558b	0.0033620324
11	0x3b9a70d0	0.0047131553
12	0xbc031c91	-0.008002416
13	0xbc088441	-0.008332313
14	0xbb998f4c	-0.004686272
15	0xbbd36649	-0.0064514023
16	0x3bb73759	0.0055913148
17	0x3aa5bb97	0.0012644407
18	0x39921938	0.0002786608
19	0x38d9a8a4	0.00010378778
20	0xbac61884	-0.0015113507
21	0x3beeb72e	0.0072850203
22	0x3b13329f	0.0022460592
23	0x3a98a880	0.0011646897
24	0xbc0cfbe3	-0.008604976
25	0x3b1254e5	0.0022328433
26	0x3b899cb5	0.004199589
27	0xbb229cb2	-0.0024812636
28	0x3b85ac17	0.0040793526
29	0xbb31f63d	-0.0027154826
30	0x3a41493f	0.000737328
31	0xbbd9e019	-0.006649029
32	0x3a9bfecc	0.0011901497
33	0x392409f1	0.00015643962
34	0x3969c9c0	0.0002229577
35	0x3b39d6f6	0.0028356886
36	0xbb867f93	-0.0041045635
37	0xbb57d4c6	-0.003293322
38	0xbb842698	-0.004032921
39	0xbc2979f9	-0.010344022
40	0xbc45a2e6	-0.012062764
41	0x3ba1940c	0.0049309786
42	0x3c19bf4e	0.0093839895
43	0x3bd79d14	0.0065800045
44	0x3bb022d0	0.0053752437
45	0xbbba28a7	-0.0056811157
46	0x3b83bfcb	0.0040206662
47	0x3a55eed4	0.00081608933
48	0x3b7fa485	0.0039007973
49	0x3b0b3730	0.002124261
50	0xbaeb90de	-0.0017972251
51	0xbbaf8738	-0.0053566955
52	0xbb4808b7	-0.0030522773
53	0xbb556494	-0.003256117
54	0x3baf2663	0.005345152
55	0xbc22d9d4	-0.00993963
56	0x3b3e451a	0.0029032887
57	0xbc09bbcb	-0.00840659
58	0xbb73c519	-0.0037196337
59	0x3ace6f03	0.0015749637
60	0x3a9fbfce	0.00121879
61	0xbb660809	-0.0035100004
62	0x3ac434e8	0.001496938
63	0x3bace3da	0.0052761855

arith.constant4 f4 [32]
0	0x3c55a0c8	0.0130388215
1	0xbb209538	-0.0024503004
2	0x3b8d3d7b	0.0043103076
3	0x3b53f71e	0.0032343338
4	0xbb52be47	-0.0032156871
5	0xbb5032ae	-0.0031768489
6	0xbb4b8790	-0.0031056143
7	0x3c068b0d	0.008211863
8	0x3b1f6464	0.0024321312
9	0x3976995c	0.00023517519
10	0x3a8b1c1f	0.0010613239
11	0xbc6e3ec0	-0.014541328
12	0xbbba6988	-0.00568885
13	0x3c41673c	0.011804398
14	0x3c5e12a1	0.013554246
15	0xbbca8e79	-0.006181535
16	0x3c204b18	0.009783529
17	0xbc013808	-0.007886894
18	0x3c8c8a3b	0.017155757
19	0xbbb7d70b	-0.005610352
20	0xbb0a3714	-0.0021089958
21	0xba9f325c	-0.0012145746
22	0xbc57b29c	-0.013165142
23	0x3aba6c48	0.0014222944
24	0x3afba826	0.0019199892
25	0x3c09d90b	0.0084135635
26	0xbc4f3d02	-0.012648823
27	0x3b598940	0.003319338
28	0xbb506517	-0.0031798535
29	0x39936723	0.00028114868
30	0x3aacd330	0.0013185497
31	0x3bbec9a4	0.0058223773

arith.constant5 f4 [64, 3, 3, 64]
0	0x3d66581c	0.05623637
1	0xbc38aca6	-0.011271631
2	0x3d00af2e	0.031417064
3	0xbc9abf97	-0.018890185
4	0xbd803486	-0.06260018
5	0x3d150d69	0.036389742
6	0xbd2ed157	-0.04268011
7	0x3d261b71	0.040553514
8	0x3cbb02f3	0.022828555
9	0xbd8c782e	-0.0685886
10	0xbd74bccf	-0.059750374
11	0x3d41e9ac	0.047341987
12	0x3d7adf11	0.06124789
13	0x3d1c1deb	0.03811447
14	0xbcc78b10	-0.024358302
15	0xbd939306	-0.07205777
16	0xbd8a80c4	-0.06762841
17	0x3c14bcbd	0.009078202
18	0xbcf362b3	-0.02971015
19	0x3c23af75	0.009990563
20	0x3d7811b6	0.060563765
21	0x3c0ebc2c	0.008711856
22	0xbd1cd39d	-0.038287748
23	0x3d576487	0.052586105
24	0x3c4b2951	0.012399987
25	0x3d2fee19	0.042951677
26	0x38adc896	8.286645e-05
27	0xbc842c46	-0.016134392
28	0xbce0d2f0	-0.027444333
29	0xbc1fb07e	-0.009746669
30	0xbd4b720b	-0.049669307
31	0x3d1a86d3	0.037726235
32	0xbd76a28c	-0.06021361
33	0xba022526	-0.0004964642
34	0xbb90ac7a	-0.004415092
35	0xbd347492	-0.044056483
36	0xbd99f731	-0.07517851
37	0x3b8173fd	0.0039505945
38	0xbbf85163	-0.0075780614
39	0x3d5a38d5	0.053276855
40	0x3bdf514a	0.0068151103
41	0xbcd160ff	-0.025558947
42	0xbbdc90dc	-0.006731136
43	0xbb205a75	-0.002446798
44	0xbd720d2b	-0.05909459
45	0x3d91ac6b	0.07112964
46	0xbcc9814f	-0.024597792
47	0x3cf653d2	0.030069266
48	0x3d77d32d	0.060504127
49	0x3d2ac106	0.041687988
50	0xbb8cd63a	-0.0042979987
51	0xbd326f3c	-0.043563113
52	0xbcec5499	-0.028848933
53	0xbd1ac97f	-0.037789818
54	0x3c2e9b26	0.010657107
55	0xbd9167b9	-0.07099862
56	0xbd7fee8c	-0.062483355
57	0x3d34c2c4	0.044131055
58	0xbdadedf4	-0.084926516
59	0x3dc2065d	0.0947387
60	0xbd571513	-0.052510332
61	0xbabd0b5d	-0.0014422942
62	0xbd1bdbdf	-0.038051482
63	0x3d0ca4b9	0.03433678
64	0x3d9197bc	0.07109019
65	0x3d04e35c	0.03244339
66	0x3d0c5dbe	0.034269087
67	0xbc39cda3	-0.0113405315
68	0x3d090697	0.03345355
69	0xbd1f4b59	-0.038890216
70	0x3b9ef5ba	0.00485107
71	0x3cbd7be0	0.023130357
72	0x3d9c3374	0.076270014
73	0xbd6a73b6	-0.057239257
74	0x3da3e53b	0.080027066
75	0xbd39aa4b	-0.04532842
76	0x3d10691e	0.035256498
77	0x3c2eb26d	0.010662657
78	0x3bdb125e	0.006685539
79	0x3d8b7ae9	0.068105526
80	0xbcd78b75	-0.026311615
81	0xbcda5334	-0.026651002
82	0xbd0c810c	-0.034302756
83	0xbd02c293	-0.03192384
84	0xbd1734d4	-0.036915615
85	0x3d74fd55	0.05981191
86	0x3d6d6696	0.05795916
87	0x3b8ee92a	0.0043612914
88	0x3d8c0f09	0.06838805
89	0xbd838948	-0.06422669
90	0xbd8010e4	-0.06253222
91	0x3d314485	0.043278236
92	0x3d37fd4c	0.044919297
93	0xbc1fe011	-0.009758011
94	0x3d83bc5f	0.06432413
95	0x3c31c04f	0.010849073
96	0xbcdfe617	-0.027331395
97	0xbcc50a24	-0.024052687
98	0xbb73b5bd	-0.0037187182
99	0xbd54e0ed	-0.05197232
100	0xbc9c8c96	-0.019110005
101	0xbc4dba75	-0.012556662
102	0x3d6653ce	0.056232266
103	0xbcb67a2e	-0.022275057
104	0xbd0dee84	-0.034651294
105	0x3d4dc1d7	0.05023369
106	0x3ce645a9	0.028109388
107	0xbae38754	-0.0017359057
108	0xbd8268ee	-0.0636767
109	0x3d035149	0.03205994
110	0x3d129263	0.035784137
111	0xbcbb374f	-0.022853522
112	0xbcd4902a	-0.025947649
113	0xbc872a15	-0.016499558
114	0x3d241bf7	0.04006573
115	0x3d5d0b3a	0.053965785
116	0x3d273f93	0.040832113
117	0x3d2a33ea	0.041553415
118	0x3d86bc63	0.06578901
119	0xbd0b51fb	-0.03401373
120	0xbc641108	-0.013920076
121	0x3d9e0af3	0.07716932
122	0xbc3cfd23	-0.011534962
123	0x3d9cf35f	0.07663607
124	0xbc1edf3b	-0.009696777
125	0xbc488137	-0.0122378385
126	0xbd51a9fd	-0.051187504
127	0xbced7c1b	-0.028989842
128	0x3cc21371	0.023690911
129	0x3d25e6d1	0.040503327
130	0xbc26693e	-0.010156928
131	0xbb866aec	-0.0041021015
132	0x3d853e80	0.065060616
133	0xbce4b61b	-0.027918866
134	0xbd439fbc	-0.047759756
135	0xbd01fce1	-0.031735305
136	0xbc4712e1	-0.012150497
137	0xbd31e820	-0.043434262
138	0xbc17540d	-0.009236348
139	0x3d67afd7	0.05656418
140	0xbd90e58c	-0.070750326
141	0xbc8847a2	-0.01663572
142	0xbd5ba39f	-0.053622838
143	0xbcabe255	-0.020981947
144	0xbd47a09e	-0.04873716
145	0x3d0c23cb	0.034213822
146	0x3c8a3a97	0.016873641
147	0x3d2eac58	0.04264483
148	0xbcaa9e4e	-0.020827439
149	0x3d33c2e5	0.043887038
150	0x3d85539f	0.0651009
151	0x3d437da7	0.047727253
152	0x3d6dd871	0.058067743
153	0x3cb50a9f	0.022099791
154	0xbc796d97	-0.015223882
155	0x3d54289b	0.051796537
156	0xbd05a26f	-0.032625612
157	0xbca092f3	-0.01960132
158	0xbd177d80	-0.03698492
159	0x3d15441b	0.036441904
160	0xb80b6f80	-3.3244025e-05
161	0x3c81ef60	0.015861213
162	0xbc27316d	-0.010204655
163	0x3d160f01	0.036635403
164	0x3cfdc21f	0.030976353
165	0xbd6a68be	-0.057228796
166	0xbc8f77f0	-0.017513245
167	0x3d8f8d2c	0.07009348
168	0x3d592946	0.053017877
169	0xbc78bedb	-0.015182222
170	0xbd7c9fbe	-0.06167578
171	0x3c7c8f5f	0.015415042
172	0xbbfbb07b	-0.00768095
173	0x3d212db4	0.039350227
174	0x3d78e7ae	0.060767822
175	0x3d418a1b	0.04725085
176	0x3c8a5edc	0.016890936
177	0x3d6e0e3c	0.058119044
178	0x3d741949	0.059594426
179	0x3b9fc426	0.0048756776
180	0x3a6525d9	0.00087412965
181	0xbd7f013e	-0.062257044
182	0x3cd25b10	0.025678188
183	0xbd880c12	-0.06642927
184	0x3d16e0a1	0.036835317
185	0xbc9df323	-0.019280976
186	0xbd04bf9b	-0.03240929
187	0xbbc013e2	-0.005861745
188	0x3d685d5e	0.056729667
189	0xbd49a014	-0.049224928
190	0x3c0f0480	0.0087291
191	0xbd3ec119	-0.04657087
192	0xbd1b9b6c	-0.03799002
193	0x3d275392	0.040851183
194	0x3c81c41b	0.01584058
195	0x3d1dc3e7	0.038516905
196	0xbcf51939	-0.029919254
197	0x3d4d9826	0.05019393
198	0xbd855f4c	-0.06512317
199	0xbd87dbff	-0.06633758
200	0xbd81a5a7	-0.06330424
201	0x3cddb2d3	0.02706281
202	0xbc56382e	-0.013074918
203	0xbd1d5a5e	-0.03841626
204	0xbd53c6a5	-0.051703114
205	0xbd49c8ce	-0.049263768
206	0xbbc8ed44	-0.0061318
207	0x3d01f211	0.031724993
208	0x3bcb6f8d	0.0062083662
209	0xbc21070c	-0.00982834
210	0x3d07c8b6	0.033150397
211	0xbd0645bf	-0.03278136
212	0xbd3c0903	-0.04590703
213	0xbd6d2e54	-0.05790551
214	0xbcd9e5a9	-0.026598768
215	0x3c10ff50	0.008849934
216	0x3d89ea03	0.06734087
217	0x3d2d5555	0.042317707
218	0xbcef04fd	-0.029177183
219	0x3d92e66b	0.07172855
220	0xbdc4df40	-0.09612894
221	0x3d0ec0bf	0.034851786
222	0xbd397f41	-0.045287374
223	0xbd89c14f	-0.06726324
224	0xbd609354	-0.054828003
225	0x3cac4fee	0.021034207
226	0xbd14ddbc	-0.036344275
227	0xbcc1e349	-0.023667948
228	0x3ca9b58f	0.020716457
229	0x3cd473d5	0.02593414
230	0x3cb579dd	0.022152836
231	0xbd88d164	-0.06680563
232	0x3d017988	0.03161004
233	0xbd8a9b24	-0.06767872
234	0xbc9a2232	-0.018815134
235	0xbd9e527e	-0.07730578
236	0xbcdc64af	-0.026903478
237	0xbccf8835	-0.025333503
238	0x3b657782	0.003501386
239	0x3ce85439	0.028360473
240	0xbd12ba70	-0.035822332
241	0xbd1dd5b1	-0.03853387
242	0x3ca88e09	0.02057554
243	0xbc8dbe4b	-0.017302653
244	0xbda736a6	-0.0816472
245	0x3d440a6a	0.047861494
246	0x3ca660f5	0.020309905
247	0x3c51c925	0.012804304
248	0xbc990973	-0.018681264
249	0x3d836b2a	0.06416924
250	0xbd806631	-0.062694915
251	0x3cac81cf	0.021057991
252	0x3cd38ddc	0.02582448
253	0xbc98ed4c	-0.01866784
254	0x3ca13d3a	0.019682515
255	0xbd1d3ff0	-0.038391054

arith.constant6 f4 [64, 3, 3, 64]
0	0xbd86364e	-0.065533265
1	0xbd890876	-0.06691067
2	0x3c65f2a2	0.014034899
3	0x3d7d7db0	0.061887443
4	0x3c97be18	0.018523261
5	0xbd8ac5a0	-0.06775975
6	0x3d3ec64b	0.046575826
7	0x3d83fe94	0.06445041
8	0x3bbe9b6c	0.0058168676
9	0x3d172c0e	0.03690725
10	0xbd8c830a	-0.06860931
11	0xbcdeec9e	-0.027212437
12	0xbc16e82a	-0.009210626
13	0x3ccf349c	0.02529364
14	0xbd8dea43	-0.069294475
15	0x3d29f312	0.041491576
16	0xbd1de25f	-0.038545962
17	0x3d07c216	0.03314408
18	0x3b707d02	0.0036695604
19	0xbc916f2e	-0.01775321
20	0xbd2bf8bd	-0.041985262
21	0x3d8f82fb	0.070074044
22	0x3d2537b4	0.040336326
23	0xbd02c45a	-0.031925537
24	0x3cfa8a6e	0.030583587
25	0x3d36dab0	0.04464215
26	0xbd82f703	-0.0639477
27	0x3d7948cb	0.060860436
28	0xbd724ab0	-0.05915326
29	0xbbf2a6f4	-0.0074051563
30	0xbd80f253	-0.0629622
31	0xbcf42c23	-0.029806202
32	0xbccdfc9c	-0.025144868
33	0x3d894fa0	0.067046404
34	0xbce5cc2d	-0.02805146
35	0xbcdaba03	-0.026700025
36	0x3d36f3ce	0.044666104
37	0x3c217afb	0.009855981
38	0xbd3cbc0e	-0.04607778
39	0xbd1e4651	-0.038641278
40	0xbc0821d0	-0.008308843
41	0xbd8cd064	-0.06875685
42	0x3d40b36a	0.047046103
43	0xbd176969	-0.03696576
44	0x3cdc7978	0.02691339
45	0xbca16621	-0.01970202
46	0xbca28bee	-0.019842114
47	0x3d4b53ce	0.04964047
48	0xbd72224e	-0.059114747
49	0xbc83bca0	-0.016081154
50	0x3d4f12ad	0.05055492
51	0x3bd87883	0.006606163
52	0x3d1c44b3	0.038151454
53	0x3d05d190	0.032670557
54	0xbd83a36f	-0.06427657
55	0xbd7c3869	-0.061577234
56	0xbd5b7de0	-0.05358684
57	0x3c6d4ad5	0.014483173
58	0xbcf4b76d	-0.02987262
59	0xbd8de163	-0.06927755
60	0xbd748eba	-0.059706427
61	0xbd5b1e86	-0.053495906
62	0xbd73b0b8	-0.059494704
63	0xbcd11e28	-0.025527075
64	0x3d75d756	0.060019813
65	0xbcde3d35	-0.027128795
66	0xbc9da8d2	-0.019245539
67	0x3cb60dd7	0.022223396
68	0xbd84781e	-0.06468223
69	0x3d741e86	0.059599422
70	0xbd8b33e7	-0.06797009
71	0x3d40ec25	0.047100205
72	0xbd884ea1	-0.06655622
73	0xbd1b5b48	-0.03792885
74	0x3c4756d8	0.012166701
75	0x3d152b28	0.03641811
76	0x3ccb6f0d	0.024833227
77	0xbbb5507b	-0.0055332757
78	0x3d021836	0.03176137
79	0xbcec96f6	-0.028880578
80	0x3c9ff2aa	0.01952489
81	0xbd2842c7	-0.04107931
82	0xbd93b914	-0.07213035
83	0xbc815aba	-0.015790332
84	0xbbfd33fc	-0.0077271443
85	0x3c544b02	0.012957336
86	0x3c992a91	0.018697055
87	0xbd18b80e	-0.037284903
88	0xbada1916	-0.0016639556
89	0xbb511083	-0.003190071
90	0xbd9a178e	-0.07524024
91	0xbd8e09e0	-0.06935477
92	0x3cda75b0	0.026667446
93	0xbd29ee76	-0.04148718
94	0xbc273a20	-0.010206729
95	0xbc6b4e9b	-0.014362003
96	0xbc50db16	-0.012747547
97	0xbd0ad406	-0.033893608
98	0xbd06816b	-0.032838266
99	0x3cfb7474	0.030695178
100	0xbd8b9672	-0.068158045
101	0xbd8491db	-0.06473132
102	0x3d56474f	0.0523141
103	0x3d6dd3be	0.05806326
104	0xbcd9514a	-0.02652802
105	0xbbeacfd9	-0.0071658907
106	0xbc25e103	-0.010124448
107	0xbd229bdc	-0.03969942
108	0xbd376e7e	-0.044783108
109	0xbd06f552	-0.0329488
110	0xbd217964	-0.039422408
111	0x3c00732a	0.007839957
112	0xbd10051c	-0.035161123
113	0xbcdce930	-0.026966661
114	0x3d64f30c	0.05589585
115	0xbaaa13e4	-0.0012975899
116	0x3c96018a	0.01831128
117	0xbd749f37	-0.05972215
118	0x3d57224d	0.052522946
119	0xbc538d7e	-0.012912152
120	0x3d3181b6	0.043336593
121	0xbc846691	-0.016162189
122	0x3d107ded	0.035276342
123	0xb9298e9a	-0.00016170219
124	0x3d8117e0	0.06303382
125	0x3d6ef635	0.05834027
126	0xbcaf1705	-0.021373281
127	0xbd8d4a5d	-0.06898949
128	0xbd87124f	-0.06595289
129	0xbb8c1d24	-0.004275935
130	0xbcf02934	-0.029316522
131	0x3d863bd4	0.0655438
132	0x3bed2f29	0.007238288
133	0x3d5a7d97	0.053342428
134	0x3c5dec49	0.013545104
135	0xbc69418f	-0.014236822
136	0xbd7932d4	-0.06083949
137	0x3d4a6bd8	0.049419254
138	0xbbbd47d3	-0.0057763844
139	0xbd3e0e45	-0.046400327
140	0x3cd87be6	0.026426267
141	0x3d72f886	0.05931904
142	0x3d87d014	0.06631485
143	0xbd89acdd	-0.06722424
144	0x3d23b280	0.039965153
145	0xbd6606f5	-0.05615898
146	0xbc7d5e00	-0.015464306
147	0xbc8f324a	-0.017480034
148	0xbd9641f2	-0.07336797
149	0x3d03cc77	0.032177415
150	0x3d5bd5a0	0.053670526
151	0xbcff76d3	-0.03118459
152	0xbc9c27cc	-0.019061945
153	0xbceeea16	-0.029164355
154	0xbc33b7fd	-0.010969159
155	0x3d3411ac	0.043962166
156	0x3d5419f5	0.051782567
157	0xbd421476	-0.047382794
158	0x3d3331b5	0.043748576
159	0xbca62eb7	-0.020285947
160	0x3d82bc67	0.06383591
161	0x3d285f0e	0.041106276
162	0xbd72f58e	-0.05931621
163	0xbc65d413	-0.014027613
164	0xbd7910c2	-0.060806997
165	0xbc8bc1f8	-0.017060265
166	0x3c3a2ad3	0.011362749
167	0xbc9a34b6	-0.018823963
168	0xbd8fba12	-0.07017912
169	0xbc2ea149	-0.010658571
170	0x3d500eba	0.050795294
171	0x3c7f5402	0.015583994
172	0x3d015d96	0.03158339
173	0xbbee781e	-0.0072775027
174	0x3d4fb6c6	0.050711416
175	0x3d86a124	0.06573704
176	0x3c12eb18	0.0089671835
177	0xbd651756	-0.055930458
178	0xbd60c066	-0.054870985
179	0x3d089856	0.033348404
180	0x3ca187be	0.019718047
181	0xbce4c087	-0.027923835
182	0xbb65b4ef	-0.0035050472
183	0x3cbf48c6	0.02335013
184	0xbd2d2128	-0.04226795
185	0x3d139388	0.03602937
186	0xbd816bb6	-0.06319372
187	0x3ca37ec0	0.0199579
188	0x3d2210e4	0.03956689
189	0xbcd7c002	-0.026336674
190	0xbcbf7a44	-0.02337373
191	0x3bbbbf24	0.005729573
192	0x3b9ae725	0.0047272616
193	0xbd2a2c86	-0.041546367
194	0xbd9ea734	-0.07746735
195	0xbd0503a2	-0.032474168
196	0x3bb81ca8	0.0056186505
197	0xbd5170c1	-0.05113292
198	0x3bb5f58a	0.005552952
199	0x3d3ca7dd	0.046058524
200	0x3cc2035d	0.023683244
201	0xbd44630f	-0.047946032
202	0xbd1ab518	-0.03777036
203	0xbd3eb584	-0.046559826
204	0x3c80ac3c	0.015707128
205	0xbd8038a5	-0.06260804
206	0xbd73876f	-0.05945533
207	0x3c0ade55	0.00847586
208	0xbbcd3452	-0.0062623406
209	0xbd705dc5	-0.058683176
210	0x3c7c97f5	0.015417089
211	0x3cfc2b5f	0.0307824
212	0x3d1b481f	0.037910577
213	0xbd32fef6	-0.04370018
214	0x3cf8c84b	0.030368945
215	0x3afe28b2	0.001939079
216	0xbda109b2	-0.07863177
217	0x3b54eac5	0.0032488566
218	0xbca0ac4c	-0.019613408
219	0xbd5e6442	-0.054294832
220	0xbd52852e	-0.05139654
221	0xbc7a861a	-0.015290761
222	0xbac30c55	-0.0014880995
223	0xbc6c83e3	-0.014435741
224	0xbb3fac3e	-0.0029246951
225	0x3d702ed8	0.058638424
226	0x3cd804cf	0.02636948
227	0xbb56653a	-0.0032714144
228	0x3d86ddec	0.06585297
229	0xbd2161b7	-0.03939983
230	0xb9762856	-0.00023475414
231	0xbd99a336	-0.07501833
232	0xbd49cbba	-0.049266554
233	0xbc97be18	-0.018523261
234	0xbd9d053f	-0.07667016
235	0xbd282035	-0.04104634
236	0x3bb7fba1	0.0056147133
237	0x3d3c13ce	0.045917325
238	0xbcd028ba	-0.025410045
239	0xbcc6cf9b	-0.024268916
240	0xbcd72b41	-0.026265742
241	0xbce38bd4	-0.027776636
242	0xbd88eb6a	-0.06685527
243	0x3d87feca	0.06640394
244	0xbd893373	-0.06699266
245	0xbd6d0e70	-0.057875097
246	0xbbc6aeed	-0.0060633332
247	0x3d1e5fec	0.038665697
248	0xbbf92038	-0.0076027177
249	0xbd1f79cd	-0.038934518
250	0x3c863e12	0.01638702
251	0xbc88cc6f	-0.016699044
252	0xbcd82970	-0.026386946
253	0x3d3f0b3d	0.046641577
254	0xbd9b980b	-0.07597359
255	0x3b9393e8	0.004503716

arith.constant7 f4 [64, 3, 3, 64]
0	0xbd58aab2	-0.052897163
1	0x3d490052	0.04907257
2	0xbd02b109	-0.031907115
3	0x3d1cbfbb	0.038268786
4	0xbda6a3b0	-0.0813669
5	0x3cf224f9	0.029558646
6	0x3d561d7d	0.052274216
7	0x3c8e97a3	0.01740629
8	0xbc53a3e9	-0.012917497
9	0x3d0937f8	0.03350064
10	0x3c55eb1b	0.013056542
11	0xbcc7e867	-0.02440281
12	0x3d647d6c	0.055783674
13	0x3cf509fe	0.029911991
14	0x3d2fc754	0.042914703
15	0x3d245d56	0.040128075
16	0xbd68aaa0	-0.056803346
17	0xbd46e881	-0.048561577
18	0x3d64baf4	0.055842355
19	0x3c2c0067	0.010498143
20	0xbd535eb8	-0.051604003
21	0xbda38fb6	-0.07986395
22	0x3cc30760	0.023807228
23	0x3d35db0d	0.044398356
24	0x3c100c6e	0.008792026
25	0x3c4272e2	0.0118682105
26	0xbc543dbb	-0.012954171
27	0x3d03ae75	0.032148797
28	0x3d10fe7c	0.035398945
29	0xbcb3db15	-0.021955052
30	0xbd7b10ce	-0.061295323
31	0x3d964508	0.073373854
32	0x3d416026	0.047210835
33	0xbcf7bb87	-0.030240787
34	0x3c51ce85	0.012805586
35	0xbc4f2166	-0.01264224
36	0xbd23c8a8	-0.039986283
37	0xbd4e5205	-0.05037119
38	0xbc2ba91c	-0.010477331
39	0xbd862783	-0.06550505
40	0x3d0fff4c	0.03515558
41	0x3d3ed525	0.04658999
42	0xbd88b9ed	-0.066760875
43	0xbb838f90	-0.0040149167
44	0x3d82d322	0.06387927
45	0xbd888ee7	-0.066678815
46	0xbda22b77	-0.079184465
47	0x3ca9d62c	0.020732008
48	0xbd3b4351	-0.045718495
49	0xbd32244c	-0.043491647
50	0xbc969842	-0.018383149
51	0xbd9cf85a	-0.07664557
52	0xbd76d588	-0.060262233
53	0x3c4b2fd6	0.012401542
54	0x3d5bc997	0.053659048
55	0x3d323168	0.04350415
56	0xbd11aebe	-0.035567038
57	0xbd265964	-0.040612593
58	0x3b5b97fc	0.0033507338
59	0xbd809991	-0.062792905
60	0x3d445e0b	0.04794125
61	0x3c891780	0.016734838
62	0xbd9382a7	-0.07202654
63	0xbda0b5dc	-0.07847187
64	0xbcc724b3	-0.024309492
65	0xbcb068ec	-0.021534406
66	0x3ada3605	0.0016648179
67	0xbad6e09d	-0.0016393844
68	0xbd187309	-0.03721908
69	0xbd516f83	-0.051131736
70	0xbc96c15f	-0.018402753
71	0xbc90ea8e	-0.01768997
72	0xbb4235c0	-0.0029634088
73	0xbc507cfb	-0.01272511
74	0xbd972550	-0.07380164
75	0xbc9626f7	-0.018329127
76	0x3ccbdaad	0.024884546
77	0xbd86b6d6	-0.06577842
78	0xbbc31a40	-0.005954057
79	0x3c28ccc8	0.01030273
80	0x3b2297a4	0.0024809623
81	0xbc1b1cf0	-0.009467348
82	0xbd2455df	-0.040120956
83	0x3b0c5012	0.002141003
84	0xbca4c519	-0.020113515
85	0xbd23abb6	-0.03995868
86	0xbc0892e7	-0.0083358055
87	0xbd3bf539	-0.04588816
88	0xbc9a9a21	-0.018872323
89	0x3c8cc8f9	0.017185675
90	0x3cd0ea3e	0.02550232
91	0xbb67b803	-0.0035357482
92	0xbd3ccda7	-0.046094563
93	0xbd9e7707	-0.077375464
94	0x3d506a05	0.050882358
95	0xbd8ed471	-0.06974114
96	0x3c38b518	0.011273645
97	0x3d771055	0.06031831
98	0x3bb4b3a9	0.005514581
99	0x3d4a6ea2	0.049421914
100	0xbd191d7e	-0.03738164
101	0xbc1b10d3	-0.00946446
102	0x3b8de375	0.0043300935
103	0xbd504e59	-0.05085597
104	0xbd1f742c	-0.03892915
105	0x3aa07428	0.0012241649
106	0xbd85f3a9	-0.06540615
107	0xbce055dc	-0.027384691
108	0x3d7fa3c8	0.062412053
109	0xbd0595c5	-0.032613534
110	0x3cd8c787	0.02646233
111	0x3cf69c51	0.030103834
112	0xbda32db5	-0.07967702
113	0x3c902917	0.017597718
114	0xbd218ff5	-0.03944393
115	0xbce97171	-0.028496476
116	0xbd8661d9	-0.06561632
117	0x3d20b577	0.03923556
118	0xbd6a4837	-0.057197776
119	0xbd1e65ae	-0.038671188
120	0xbd4e1ae7	-0.050318625
121	0x3d866265	0.06561736
122	0xbcf98a4a	-0.03046145
123	0x3ab98611	0.0014154335
124	0x3d479b13	0.048731875
125	0x3d6041f8	0.054750413
126	0xbc597daf	-0.013274594
127	0xbd1e35f2	-0.038625665
128	0x3baab330	0.005209349
129	0xbd9f5fa3	-0.07781913
130	0x3c94ee2d	0.018179977
131	0xbd23f492	-0.040028162
132	0xbc0ab312	-0.008465545
133	0x3cccf983	0.02502132
134	0x3d13336a	0.035937704
135	0xbb604d72	-0.0034225849
136	0x3d318f98	0.043349832
137	0x3d393a9c	0.04522191
138	0x3c967bc1	0.018369557
139	0xbda49943	-0.08037045
140	0x3c8146d9	0.015780853
141	0x3c984108	0.018585697
142	0xbd2d4b67	-0.042308237
143	0x3b5494be	0.003243729
144	0x3cda428c	0.02664306
145	0x3d33f27c	0.043932423
146	0x3bd6253a	0.0065351995
147	0xbcc09ac4	-0.023511298
148	0xbd968eee	-0.073514804
149	0xbd8df289	-0.069310255
150	0xbd9f969e	-0.077924
151	0x3d05a729	0.03263012
152	0x3d81eae5	0.06343631
153	0x3d806ae9	0.062703915
154	0xbd751d1f	-0.059842225
155	0xbd0de7cb	-0.034644883
156	0xbd63c787	-0.055610206
157	0xbbe60902	-0.007020117
158	0x3d471f68	0.048613936
159	0x3d5095cd	0.05092411
160	0x3d7fc918	0.062447637
161	0x3c1672b4	0.009182621
162	0xbd3103af	-0.043216404
163	0x3d8f89cd	0.07008705
164	0xbd9840cf	-0.07434236
165	0xbcc17df7	-0.023619635
166	0xbd9a33fd	-0.07529447
167	0x3d587e58	0.052854866
168	0x3d01c4af	0.031681713
169	0xbd27bc41	-0.040951017
170	0xbd15f5cc	-0.036611363
171	0x3cba9222	0.02277476
172	0xbc7868bd	-0.01516169
173	0x3adb8532	0.0016748069
174	0xbd9f0c01	-0.077659614
175	0xbca15cc1	-0.019697549
176	0x3d818c2f	0.06325566
177	0xbd8d8cd1	-0.06911624
178	0xbc9ee037	-0.019394023
179	0xbbcb8bd6	-0.006211738
180	0x3b6209d0	0.0034490712
181	0xbcb4a583	-0.022051578
182	0xbcc5a99e	-0.024128731
183	0x3d00f393	0.03148229
184	0xbb4fb896	-0.0031695715
185	0xbd8363b2	-0.064155
186	0xbd3ba89d	-0.0458151
187	0xbd8ac16b	-0.06775173
188	0xba0080c9	-0.0004902003
189	0x3d8b441c	0.068001
190	0xbbc022fc	-0.0058635455
191	0xbc68f555	-0.014218648
192	0xbd3bd422	-0.045856602
193	0x3d331a61	0.04372633
194	0x3d7571a4	0.05992283
195	0x3d37fedc	0.044920787
196	0x3d314395	0.043277342
197	0x3d62884f	0.055305775
198	0x3d2dd0d9	0.0424355
199	0xbd851cf8	-0.06499666
200	0x3d2cce03	0.042188656
201	0x3d7e3029	0.062057648
202	0x3cba6353	0.02275244
203	0x39bbc0bd	0.0003581102
204	0x3cf536e3	0.029933399
205	0xbbd36e0d	-0.006452328
206	0xbd5f7307	-0.054553058
207	0x3d3be57b	0.045873147
208	0x3c3036eb	0.010755281
209	0x3c1bade8	0.009501912
210	0xbd02bb62	-0.031916983
211	0xbd655c4d	-0.055996228
212	0xbcaef7c6	-0.021358382
213	0xbd9972bc	-0.07492587
214	0xbc98db49	-0.01865925
215	0xbc7c8b04	-0.015414003
216	0x3d84cf35	0.06484834
217	0xbc6938fd	-0.0142347785
218	0x3c0d2df1	0.00861691
219	0x3d0eb34a	0.034838952
220	0xbd0a49da	-0.033761837
221	0x3d85c0c8	0.06530911
222	0xbcc7c90a	-0.024387855
223	0x3d9139c9	0.070911
224	0x3c3c2a6d	0.0114847245
225	0xb9b5a287	-0.00034644103
226	0x3d8429e2	0.06453301
227	0x3da394e8	0.07987386
228	0xbd80b92b	-0.06285318
229	0xbc8ccaf6	-0.017186623
230	0x3d1ee4ae	0.038792305
231	0xbd2a9d6e	-0.041654043
232	0xbd891c20	-0.066948175
233	0x3d6a5e2e	0.057218723
234	0xbd58666d	-0.052832056
235	0xbcc02e49	-0.02345957
236	0xbcf925d7	-0.030413551
237	0xbd03481f	-0.032051202
238	0xbd32333a	-0.043505885
239	0x3d2f5058	0.04280123
240	0xbcc5f0b2	-0.024162624
241	0x3d28b0f8	0.041184396
242	0xbd83b713	-0.06431403
243	0x3d3b3099	0.045700643
244	0xba9dfc9c	-0.0012053433
245	0xbd2cb327	-0.04216304
246	0x3caee99f	0.021351634
247	0x3c6a217a	0.014290208
248	0x3d8a3964	0.06749228
249	0x3d7c5023	0.06159986
250	0xbd7b092d	-0.061288048
251	0x3c57c7a9	0.013170161
252	0x3d450171	0.048097078
253	0x3d7b859d	0.06140672
254	0xbc5a2f26	-0.013316905
255	0xbceb5657	-0.028727693

arith.constant8 f4 [64, 3, 3, 32]
0	0x3d8e58d9	0.0695054
1	0xbd58cc81	-0.052929405
2	0xbd76b74f	-0.06023341
3	0x3dac40ae	0.08410774
4	0x3d6e1916	0.058129393
5	0x3d8e5082	0.069489494
6	0x3d885414	0.06656662
7	0xbbba20fb	-0.005680201
8	0xbd4da13f	-0.050202604
9	0x3d9628d5	0.07332007
10	0xbcbd91a9	-0.023140745
11	0x3d2dd90f	0.04244333
12	0x3d3f6574	0.046727613
13	0x3c9fbb78	0.019498572
14	0x3d139b20	0.03603661
15	0xbd2214fc	-0.039570794
16	0xbd8adc1b	-0.06780263
17	0xbd6efcf2	-0.058346696
18	0x3b7b44d4	0.0038340585
19	0xbdad0f48	-0.0845018
20	0x3d8a6678	0.067578256
21	0x3c275d87	0.01021517
22	0x3c0fd834	0.008779574
23	0x3d6198e0	0.055077434
24	0xbcc4e56e	-0.024035182
25	0xbda35f12	-0.079771176
26	0xbd4affc7	-0.049560335
27	0x3d381269	0.044939432
28	0xbb51023a	-0.0031892196
29	0x398a4ed4	0.00026380143
30	0xbd984da9	-0.074366875
31	0xbb8b1324	-0.004244225
32	0xbd4fcb6a	-0.0507311
33	0xbb7abfcf	-0.00382613
34	0xbd89128b	-0.0669299
35	0xbaecb501	-0.0018059314
36	0xbd79621f	-0.06088459
37	0xbda96f72	-0.0827321
38	0xbc253b75	-0.010084976
39	0x3d887c6a	0.06664355
40	0x3d803388	0.06259829
41	0xbcbdcf14	-0.023170032
42	0xbd56e0bc	-0.052460417
43	0xbd982924	-0.07429722
44	0xbd86366b	-0.06553348
45	0x3ce0c160	0.027435958
46	0xbc307eff	-0.010772466
47	0x3d254008	0.040344268
48	0xbd99a241	-0.075016506
49	0x3d293278	0.041307896
50	0x3db59b71	0.08867539
51	0x3d8ba582	0.068186775
52	0x3cb44403	0.022005087
53	0x3d03e0db	0.03219686
54	0xbd859568	-0.065226376
55	0x3d160e58	0.036634773
56	0x3d930622	0.07178904
57	0x3d962c70	0.073326945
58	0x3c2be823	0.010492357
59	0x3d5dd92a	0.054162182
60	0x3cbd2683	0.023089653
61	0xbbafff6a	-0.005371024
62	0x3cb5cc3b	0.022192111
63	0xbd8bac44	-0.068199664
64	0x3c3fcf05	0.011707072
65	0xbcd9b8f7	-0.026577456
66	0xbd25767f	-0.04039621
67	0x3b9b121f	0.004732385
68	0xbca086bb	-0.019595494
69	0xbb07e41f	-0.0020735336
70	0xbdbb9a4d	-0.0916029
71	0x3d303d2c	0.043027088
72	0xbd335a2b	-0.043787163
73	0x3c012fea	0.007884959
74	0x3d6a881c	0.05725871
75	0xbd58d015	-0.052932817
76	0xbcddf16e	-0.027092662
77	0xbda3e8ec	-0.08003411
78	0x3d6e4553	0.05817158
79	0x3c6100ab	0.013733069
80	0x3c503acc	0.012709331
81	0xbd9d035d	-0.07666657
82	0x3d059b8a	0.032619037
83	0xbd5526fb	-0.052039128
84	0x3d4f9d0f	0.050686892
85	0x3c3b65e8	0.011437871
86	0x3cad3cdc	0.021147184
87	0x39d48b6c	0.00040539668
88	0xbd24e973	-0.040261697
89	0x3d94d8cb	0.072679125
90	0x3c57aa78	0.0131632015
91	0xbd5eabd8	-0.0543631
92	0x3d1fefc8	0.039047033
93	0xbd8a1b2d	-0.067434646
94	0x3d43e160	0.047822356
95	0x3c7be4ad	0.015374345
96	0x3dbe4c10	0.092918515
97	0xbda790b3	-0.08181896
98	0xbd8f4bc3	-0.06996872
99	0x3cdc247f	0.026872871
100	0x3d9b2d50	0.07577002
101	0xbbda565b	-0.0066631264
102	0xbc0dac07	-0.008646972
103	0xbd46b149	-0.048508916
104	0xbda3f9a9	-0.08006603
105	0xbca70e01	-0.02039242
106	0xbd5a5676	-0.05330511
107	0xbd3d70a1	-0.04624999
108	0xbd6d450e	-0.057927184
109	0xbb3075ab	-0.0026925604
110	0x3d65e5bc	0.056127295
111	0xbcdcac94	-0.02693776
112	0xbd24775b	-0.04015289
113	0x3d0cbbb7	0.034358706
114	0x3c9e7fbb	0.019348016
115	0xbdb3809a	-0.08764763
116	0xbd33ce18	-0.04389772
117	0xbd0eca94	-0.034861162
118	0x3b7cdeee	0.0038585025
119	0xbda3edd3	-0.08004346
120	0xbdacbdec	-0.08434662
121	0xbd91e577	-0.07123845
122	0x3ce4052b	0.027834496
123	0xbd7effe9	-0.062255774
124	0xbd818e3d	-0.06325958
125	0xbcf1d166	-0.029518794
126	0x3d6c14e7	0.05763712
127	0xbbb73e5b	-0.00559215
128	0xbd326cce	-0.043560795
129	0xba3eaf38	-0.00072740344
130	0x3d055f6f	0.032561716
131	0xbb6af8a1	-0.003585376
132	0x3d96000a	0.07324226
133	0xbba15e25	-0.004924553
134	0x3d2b02ad	0.0417506
135	0x3d96cd71	0.073634036
136	0xbcf73c88	-0.03018023
137	0xbd78f955	-0.060784657
138	0x3d9b5de5	0.07586268
139	0x3cbe0208	0.023194328
140	0xbc45e4ab	-0.0120784445
141	0xbd26603a	-0.040619113
142	0xbd84e7ec	-0.06489548
143	0x3d662391	0.056186263
144	0xbc916727	-0.017749382
145	0xbcb01143	-0.021492606
146	0x3a96e4bc	0.001151226
147	0xbd990c0a	-0.074729994
148	0xbd2ad13c	-0.041703448
149	0x3d3d3401	0.046192173
150	0x3d528719	0.05139837
151	0xbc4bdc6f	-0.012442692
152	0xbc673383	-0.014111402
153	0x3d28a332	0.04117126
154	0x3ce85b3b	0.028363815
155	0xbbabd8d6	-0.0052443547
156	0xbb926adc	-0.004468305
157	0xba16eaf2	-0.00057570555
158	0xbd4646f6	-0.048407517
159	0xbc3f409b	-0.011673118
160	0x3daddcdd	0.08489392
161	0xbd48d3ac	-0.04902999
162	0x3d84d8b5	0.06486646
163	0x3d8fb0ca	0.07016142
164	0xbd776f2f	-0.060408767
165	0xbd33a99f	-0.043862935
166	0xbbc4ef36	-0.0060099615
167	0x3d94258a	0.072337225
168	0xbcbb77cb	-0.02288427
169	0x3bbd1f6f	0.0057715694
170	0x3c62e76a	0.013849119
171	0xbda2b990	-0.079455495
172	0x3d8e2bf9	0.06941981
173	0x3d00d528	0.03145328
174	0x3cdac7f7	0.026706679
175	0x3ccf0f35	0.025275806
176	0x3ce00fdf	0.027351318
177	0x3c90685e	0.017627891
178	0x3db308cb	0.087419115
179	0x3bf64de0	0.0075166076
180	0xbd9f1e0e	-0.07769404
181	0x3ab48a70	0.0013774168
182	0xbd3a9995	-0.045556623
183	0xbd89342c	-0.06699404
184	0xbd0529d5	-0.032510597
185	0xbd17af50	-0.037032425
186	0xbd85716c	-0.06515774
187	0xbd8362c9	-0.06415326
188	0xbc3d546f	-0.011555775
189	0xbbddb778	-0.006766256
190	0x3c1f7626	0.009732759
191	0xbda38341	-0.07984019
192	0xbacfa52e	-0.0015842074
193	0x3d8982a8	0.06714374
194	0x3d66bc59	0.056331966
195	0xbd61dd46	-0.055142663
196	0x3cc87760	0.024470985
197	0xbc8b69d6	-0.01701824
198	0xbd39a61e	-0.045324437
199	0xbca92d61	-0.020651521
200	0x3d8f5ee7	0.07000523
201	0x3d3afda8	0.04565206
202	0xbb42c57a	-0.0029719756
203	0x3d537392	0.05162389
204	0x3bde9d6a	0.0067936676
205	0x3dab8a45	0.08375982
206	0xbd53e290	-0.05172974
207	0xbd9b3f7d	-0.07580469
208	0xbb90245f	-0.004398867
209	0xbce25dd6	-0.027632635
210	0x3d71fb45	0.05907752
211	0xbd8a9b53	-0.06767907
212	0x3bb6ebc6	0.0055823056
213	0x3d00d614	0.03145416
214	0xbc8b843a	-0.017030824
215	0xbd25939f	-0.040423986
216	0xbd98340a	-0.07431801
217	0x3c7081fc	0.014679428
218	0x3d79286d	0.06082957
219	0x3daff35a	0.085913375
220	0x3d0da242	0.03457857
221	0xbd67f54f	-0.05663043
222	0xbd94ee90	-0.07272065
223	0x3d4d5845	0.05013301
224	0x3d38a6ca	0.045080937
225	0xb9d4cc76	-0.00040588126
226	0x3ceade6a	0.028670508
227	0x3d1ffbfc	0.03905867
228	0xbd4fc602	-0.050725944
229	0xbd89705d	-0.06710885
230	0xbb9019d2	-0.0043976093
231	0xbd57e17e	-0.05270528
232	0x3d9fc93b	0.078020535
233	0xbd6e76d4	-0.058218792
234	0xb96dd172	-0.00022680106
235	0x3d3d4ad3	0.046213936
236	0x3d3638f0	0.044487894
237	0xbd1113ce	-0.035419278
238	0xbca186d5	-0.019717613
239	0xbc15ecd3	-0.009150702
240	0x3cadc42c	0.021211706
241	0xbdb50c2f	-0.088402145
242	0xbc3fc7db	-0.011705364
243	0x3d12097b	0.035653573
244	0x3d974401	0.073860176
245	0xbd2e379a	-0.042533495
246	0x3d268e10	0.040662825
247	0x3c35ecaa	0.011103788
248	0x3d3ab1c6	0.045579694
249	0xbd8b070b	-0.06788453
250	0xbd94d6f1	-0.07267559
251	0x3da631b3	0.08114948
252	0xbc321074	-0.010868181
253	0xbd7a4fb6	-0.061111175
254	0xbc35dae8	-0.011099555
255	0x3d400b6b	0.04688589

arith.constant9 f4 [6, 64]
0	0x3df408fd	0.11915777
1	0x3e84fd8c	0.2597469
2	0x3e50e5cc	0.2040016
3	0xbdcb467e	-0.09925555
4	0xbe8b4226	-0.27198905
5	0x3dba882e	0.091080055
6	0xbcf62fa1	-0.030052008
7	0x3b8bbe49	0.004264627
8	0x3b802be4	0.003911482
9	0x3e6f70d7	0.23382889
10	0xbe39c2a1	-0.18140651
11	0x3cadc351	0.021211298
12	0xbda8b610	-0.08237851
13	0x3e3f6269	0.18689884
14	0x3e2d8732	0.16946104
15	0x3e385de1	0.18004562
16	0x3d273495	0.04082163
17	0xbd9cf40e	-0.07663737
18	0x3d05a658	0.03262934
19	0xbe8058e9	-0.25067833
20	0x3d060849	0.032722745
21	0x3e48ba78	0.19602382
22	0xbde3a08b	-0.111146055
23	0xbddb04e8	-0.10694295
24	0x3df9e75f	0.12202334
25	0x3dbd42b5	0.09241239
26	0x3e104e13	0.14092283
27	0xbc600b11	-0.013674513
28	0xbe9639c4	-0.29340947
29	0xbe0eca18	-0.1394428
30	0x3df6f745	0.12058882
31	0x3dee8b2a	0.11647637
32	0xbdba7e10	-0.09106076
33	0x3c9426f0	0.018084973
34	0x3de77090	0.113007665
35	0xbe20fcf5	-0.15721495
36	0xbdab8da7	-0.083766274
37	0x3e9847d7	0.2974231
38	0x3cff98c5	0.031200776
39	0x3deb41d0	0.11487162
40	0x3e300aab	0.1719157
41	0xbe5d2835	-0.21597369
42	0x3c4495de	0.011998622
43	0x3db71716	0.0893995
44	0xbdcf435e	-0.10120271
45	0xbc9c8537	-0.01910649
46	0x3e7e5f95	0.24841149
47	0x3e5593cd	0.20857163
48	0xbe192782	-0.14956477
49	0x3e9a29a3	0.3010989
50	0xbe911cea	-0.28342372
51	0xba7a690e	-0.00095523975
52	0xbe6b40f5	-0.22973998
53	0xbe10c76d	-0.14138575
54	0x3e6f2ed5	0.23357709
55	0xbe8023c3	-0.25027284
56	0xbcd8f8a9	-0.026485758
57	0x3d20d8e1	0.03926933
58	0xbe3e5371	-0.18586518
59	0xbe622c5f	-0.22087239
60	0xbe8ba29e	-0.27272505
61	0x3d64a798	0.055823892
62	0x3e597b1a	0.21238366
63	0xbbf37747	-0.0074299905
64	0x3dbe59db	0.09294482
65	0x3c1371a0	0.008999258
66	0xbe6c3f1e	-0.23070952
67	0xbd2cb2e7	-0.042162802
68	0xbd8e0cf5	-0.06936065
69	0xbe3b45b1	-0.18288304
70	0x3d89fbbb	0.06737467
71	0x3daf3d18	0.085565746
72	0xbe17cd5c	-0.14824432
73	0x3c4d738a	0.012539754
74	0xbd043afa	-0.032282807
75	0xbc3547b6	-0.0110644605
76	0xbc1d8dc2	-0.009616317
77	0x3e711c04	0.23545843
78	0xbe56da13	-0.20981626
79	0xbe7ec64e	-0.24880335
80	0xbc08a056	-0.008339008
81	0xbe4a48ce	-0.19754335
82	0xbe3a25d7	-0.18178497
83	0x3e69dbc5	0.22837742
84	0x3c836264	0.016038127
85	0xbe884c27	-0.266206
86	0x3e837322	0.25673777
87	0x3d69c608	0.057073623
88	0x3e699f6a	0.22814718
89	0xbe6560c1	-0.2240019
90	0xbd894cc6	-0.067040965
91	0x3dbdfb69	0.09276468
92	0xbd1d1c35	-0.03835698
93	0x3da65db0	0.08123338
94	0xbe606111	-0.21912028
95	0xbe4fed2d	-0.20305319
96	0x3e42beff	0.19018172
97	0x3d860e6d	0.0654572
98	0x3e89e066	0.26929015
99	0x3dcf41d1	0.10119975
100	0xbe00c259	-0.12574138
101	0x3b1056c6	0.0022024377
102	0xbda4093b	-0.08009573
103	0x3e77b581	0.24190332
104	0x3d6f2506	0.058384918
105	0x3e3746e2	0.17898133
106	0xbe87245c	-0.26394928
107	0x3d29f80f	0.041496333
108	0xbe2f47f5	-0.17117293
109	0xbc190333	-0.009339142
110	0xbe4c5acb	-0.1995651
111	0x3e508dad	0.20366545
112	0xbe3ff992	-0.18747547
113	0xbe4676d1	-0.19381262
114	0xbe73da78	-0.23813808
115	0xbd0ec160	-0.034852386
116	0x3e554732	0.2082794
117	0xbdb4ed88	-0.08834368
118	0xbdfb7b36	-0.1227936
119	0x3dae7307	0.085180335
120	0x3e8b40fd	0.2719802
121	0x3e23594d	0.15952034
122	0x3e647bd6	0.22312865
123	0x3e163212	0.14667538
124	0xbdf03dfb	-0.11730572
125	0xbe6f45d7	-0.23366486
126	0x3d679ebb	0.05654786
127	0xbd0db098	-0.03459224
128	0x3e831f28	0.25609708
129	0x3e4e6d86	0.20158967
130	0x3c875599	0.016520308
131	0x3e0d4dcf	0.13799213
132	0xbe5a846d	-0.21339579
133	0xbe141f28	-0.1446501
134	0xbe1944d9	-0.1496767
135	0x3e821594	0.25407088
136	0xbe517a18	-0.20456731
137	0xbdfd6ab4	-0.12373868
138	0xbdb9877f	-0.09059047
139	0x3d430a5c	0.0476173
140	0xbe5c099b	-0.21488039
141	0x3da314be	0.07962941
142	0x3dbea380	0.09308529
143	0x3d488b29	0.04896084
144	0x3e06739e	0.13130042
145	0xbde711d2	-0.11282696
146	0x3d36fbc8	0.04467371
147	0xbd5d6051	-0.054046933
148	0xbe343369	-0.17597736
149	0xbb965d48	-0.0045887567
150	0xbe03c3d8	-0.12867677
151	0x3e185457	0.14875923
152	0xbdbd1f7e	-0.09234522
153	0x3e328baa	0.1743609
154	0x3d3449a0	0.044015527
155	0xbdd9ac6e	-0.106285915
156	0x3e60c460	0.21949911
157	0xbe120b58	-0.1426214
158	0xbdf6ccab	-0.12050756
159	0xbe81a1c2	-0.25318724
160	0x3e1c98f1	0.15292718
161	0x3e7e8f76	0.24859414
162	0xbe4f4354	-0.20240527
163	0x3e7bf01e	0.24603316
164	0xbe770fcf	-0.24127124
165	0x3dd40fdd	0.10354588
166	0x3e8a14f5	0.26969114
167	0xbcb3f87c	-0.021969073
168	0x3e83e6c7	0.25762007
169	0x3d05dd8a	0.03268198
170	0x3e87058a	0.26371413
171	0xbe572ff3	-0.21014385
172	0xbe55f0bf	-0.20892619
173	0xbe550233	-0.2080162
174	0xbe359196	-0.17731318
175	0xbdf05aab	-0.117360435
176	0xbdebb832	-0.11509742
177	0xbde37d64	-0.11107901
178	0xbe04c195	-0.1296447
179	0xbdb80764	-0.08985785
180	0xbcb29f08	-0.021804348
181	0xbe7ca90f	-0.24673866
182	0xbe22462d	-0.15847082
183	0x3e0a5aa5	0.1351114
184	0x3defcaaa	0.11708577
185	0x3e550144	0.20801264
186	0xbdfc90ff	-0.12332343
187	0xbd13be8e	-0.0360704
188	0xbe810853	-0.25201663
189	0xbd7822e6	-0.060580157
190	0x3dda1647	0.1064878
191	0x3db2ca3f	0.08729982
192	0x3e7d27f9	0.2472228
193	0xbe6b1818	-0.2295841
194	0xbe8e43ce	-0.27786106
195	0xbe902f82	-0.28161246
196	0xbd90ad19	-0.07064266
197	0x3e4b6a69	0.19864811
198	0xbe8e97ae	-0.27850097
199	0xbe8e8d29	-0.27842072
200	0xbe74ada6	-0.23894367
201	0x3e4ab1a6	0.1979433
202	0x3e6fc20b	0.23413865
203	0x3d2d8640	0.04236436
204	0xbd21fd51	-0.039548222
205	0xbd2c421a	-0.042055227
206	0xbb9d5dd0	-0.004802443
207	0x3e5e9e8d	0.2174017
208	0x3d35c723	0.044379365
209	0x3e212088	0.15735066
210	0x3e3d4f63	0.18487315
211	0xbe5d7902	-0.21628192
212	0x3e7d2066	0.2471939
213	0xbe7e4c91	-0.24833895
214	0x3e8d19e9	0.2755883
215	0xbe61357b	-0.21993057
216	0xbe203f46	-0.15649137
217	0xbd37ddd5	-0.04488929
218	0x3e4ddd5c	0.20103973
219	0xbe4d5b18	-0.20054281
220	0x3e018d46	0.12651548
221	0x3dfd7bc0	0.12377119
222	0x3df2e955	0.11860911
223	0x3d3a98e6	0.04555597
224	0x3d0f54ce	0.034992985
225	0xbb21f3c4	-0.0024711946
226	0x3dd24793	0.10267558
227	0xbe28fd84	-0.16502959
228	0xbc75f96f	-0.015013083
229	0x3c5a0067	0.01330576
230	0x3d419f58	0.047271103
231	0x3e88058b	0.2656673
232	0x3e666440	0.2249918
233	0xbe24f585	-0.16109283
234	0xbe3f10e2	-0.18658784
235	0xbe846db0	-0.25864935
236	0xbe62e25c	-0.22156662
237	0xbe2c8142	-0.16846183
238	0xbe258d4d	-0.16167183
239	0x3d05968b	0.032614272
240	0x3e8cba92	0.27486092
241	0x3e80cedc	0.2515782
242	0xbe805c86	-0.2507059
243	0x3e6cfb36	0.23142704
244	0x3e2b9bf2	0.16758707
245	0xbe8dbf4e	-0.27685016
246	0xbe435429	-0.19075073
247	0x3c42df85	0.0118941115
248	0x3e417fe2	0.1889644
249	0x3d279969	0.040917788
250	0xbdb63265	-0.08896331
251	0xbe0dcf90	-0.1384871
252	0x3c6cde72	0.014457332
253	0xbddbe161	-0.10736347
254	0xbdb1de11	-0.08684934
255	0x3d9b9f74	0.07598773

arith.constant10 f4 [64, 1600]
0	0x3d4913ce	0.049091153
1	0x3c25ea9a	0.010126734
2	0xbd73986e	-0.05947154
3	0x3cd1b0d1	0.025597008
4	0xbad1e299	-0.0016012966
5	0x3d2953ca	0.041339673
6	0xbc9daee4	-0.019248433
7	0xbc1c1d14	-0.009528417
8	0xbcce8bec	-0.025213204
9	0x3c4a734b	0.01235659
10	0x3c9d46a8	0.01919873
11	0x3d0a4a8b	0.033762496
12	0xbd6bb4b8	-0.057545394
13	0x3d5950b3	0.053055476
14	0xbbafd2cf	-0.0053657065
15	0x3cfdd42b	0.030984959
16	0xbd802b0d	-0.06258211
17	0x3d3adce2	0.045620807
18	0x3d06d6ca	0.032919683
19	0x3d1ff9c9	0.039056573
20	0xbd462c28	-0.048381954
21	0xbd5a4aea	-0.0532941
22	0x3ba2c8e6	0.0049677966
23	0xbd3b27cb	-0.045692246
24	0x3d984ce9	0.074365444
25	0x3c20d531	0.009816454
26	0xbc2c0b9e	-0.010500817
27	0x3d2ac0c0	0.041687727
28	0xbd676dd6	-0.056501232
29	0xbc4763e1	-0.012169809
30	0xbbeded47	-0.0072609517
31	0xbd553596	-0.052053057
32	0x3d577155	0.052598316
33	0xbcdc657c	-0.02690386
34	0x3cee4e27	0.02909
35	0xbc7f7a7c	-0.015593167
36	0x3d370d5d	0.04469048
37	0xbd220ff3	-0.03956599
38	0xbbaa8dd6	-0.0052048964
39	0xbd47fc3d	-0.048824538
40	0xbc903818	-0.017604873
41	0xbcf91613	-0.030406034
42	0xbd0e5405	-0.034748096
43	0xbd28e264	-0.041231528
44	0xbcc7c5f9	-0.024386393
45	0xbca7d1cd	-0.020485783
46	0xbd267c21	-0.040645722
47	0x3cf6ab50	0.030110985
48	0x3d3ee07a	0.046600796
49	0x3ca62df5	0.020285586
50	0x3c5905aa	0.013245979
51	0xbd45cf3c	-0.048293337
52	0x3d5cfe49	0.053953443
53	0xbd03a3d3	-0.032138657
54	0x3d0dfbc2	0.034663923
55	0xbca78643	-0.020449763
56	0x3d5a4ca0	0.05329573
57	0x3d088f3a	0.033339716
58	0x3c80be4f	0.015715746
59	0xbc847143	-0.016167289
60	0xbd821fbe	-0.063537106
61	0xbd242f96	-0.040084444
62	0x3d0f267e	0.03494882
63	0x3bee952c	0.0072809663
64	0xbd2c0bd6	-0.042003475
65	0xbd37b92f	-0.04485434
66	0xbd2afdfe	-0.041746132
67	0x3d17b05f	0.037033435
68	0x3d0fa778	0.03507182
69	0xbca15fce	-0.019699004
70	0x3c2430c0	0.0100213885
71	0xbd650ef9	-0.055922482
72	0x3d5a5535	0.053303916
73	0x3d3e12a0	0.04640448
74	0x3a4424e2	0.00074823026
75	0x3c2261b5	0.0099109905
76	0x3ca6149a	0.020273495
77	0x3d1909fd	0.03736304
78	0x3d4ba5b5	0.049718577
79	0x3d0a239d	0.03372537
80	0x3d07ff73	0.0332026
81	0xbd39eac5	-0.04538991
82	0xbd75d23e	-0.060014956
83	0xbcfa3316	-0.030541938
84	0xbd483414	-0.04887779
85	0x3d8aaf3d	0.06771705
86	0xbd3a0c76	-0.04542204
87	0x3cefc451	0.029268416
88	0x3cd8d9f3	0.026471114
89	0x3cf68d93	0.030096805
90	0xbd01b51c	-0.03166686
91	0x3c8dae78	0.017295107
92	0x3cc72528	0.02430971
93	0xbcb15a28	-0.021649435
94	0x3c99bb76	0.018766146
95	0xbce8c04e	-0.02841201
96	0x3d09de01	0.033658985
97	0x3d14b9cf	0.036310013
98	0x3d821cce	0.0635315
99	0x3ce91ae6	0.028455209
100	0x3c2f8529	0.0107129
101	0x3c8594d4	0.016306318
102	0xbc833966	-0.01601858
103	0xbca84487	-0.020540489
104	0x3d476ad8	0.04868588
105	0xbd2ae6cd	-0.041724015
106	0x3d503ca2	0.050839074
107	0x3d5bcbf0	0.053661287
108	0xbc8bafe2	-0.01705164
109	0x3d8a921c	0.067661494
110	0xbbe2a4cf	-0.0069166194
111	0x3c013bc1	0.007887782
112	0x3b8a1de6	0.00421499
113	0xbc6851d1	-0.014179663
114	0x3c85c160	0.01632756
115	0xbc88c092	-0.016693387
116	0x3d293fd1	0.041320626
117	0x3d216f6c	0.0394129
118	0x3d0e5add	0.034754623
119	0xbca38a5c	-0.019963436
120	0x3d8bf698	0.068341434
121	0xbcee71ce	-0.029107
122	0x3b1a4304	0.002353848
123	0x3ce2e611	0.027697595
124	0xbd292fd5	-0.04130538
125	0xbcf4cafc	-0.029881947
126	0xbc98967c	-0.018626444
127	0x3b9e983a	0.004839924
128	0xbd615364	-0.055011168
129	0x3d261093	0.04054315
130	0x3d64954c	0.055806443
131	0x3bd97fd6	0.0066375537
132	0xbd18de93	-0.03732164
133	0x3d0803ff	0.033206936
134	0x3caa87c5	0.020816693
135	0xbd4783f5	-0.04870983
136	0xbcfcd0e6	-0.03086133
137	0xbd2bb154	-0.04191716
138	0x3d46f736	0.048575602
139	0xbc93625d	-0.01799124
140	0xbca3b606	-0.019984256
141	0xbbd84f15	-0.006601224
142	0xbd80f2b2	-0.062962905
143	0xbcb50c5d	-0.022100622
144	0xbd0b935d	-0.034076083
145	0x3ccd8d64	0.025091834
146	0x3d85ac47	0.06527
147	0xbd70d325	-0.058795113
148	0xbc95981a	-0.018261004
149	0xbc532698	-0.012887619
150	0x3cd96a69	0.026539998
151	0x3d25cd96	0.040479265
152	0x3cd27b42	0.02569354
153	0xbd103a75	-0.035212
154	0xbb89ecbd	-0.0042091296
155	0xbccc1ac8	-0.024915114
156	0x3c729421	0.0148058245
157	0x3d558e9a	0.05213795
158	0x3c4c65c1	0.012475432
159	0x3ce37cc4	0.027769454
160	0x3c0364b6	0.008019617
161	0xbc86f27e	-0.016473051
162	0x3bbd8fa2	0.0057849446
163	0xbcd56d1d	-0.026053006
164	0x3d02b854	0.03191407
165	0xba8caedb	-0.0010733263
166	0xbd54bd6d	-0.051938463
167	0x3d204941	0.03913236
168	0x3d8f14cf	0.06986391
169	0x3d805e51	0.062679894
170	0x3d132d0c	0.035931632
171	0x3d517267	0.051134493
172	0x3d6ddde7	0.05807295
173	0xbd721863	-0.05910529
174	0x3d6a64bb	0.05722497
175	0xbcb72e62	-0.022360984
176	0x3d74ba1f	0.05974781
177	0x3beaff12	0.00717152
178	0x3d6302b6	0.055422507
179	0x3d1165b1	0.03549737
180	0xbcebcc97	-0.02878408
181	0xbd3f0543	-0.046635877
182	0xbd0806ce	-0.033209614
183	0xbd22baed	-0.039729048
184	0xbd463b30	-0.04839629
185	0xbd24382a	-0.040092625
186	0x3d5a94ac	0.05336444
187	0x3ca3b1ad	0.019982183
188	0x3c43b4ec	0.011944991
189	0x3d6350a3	0.055496823
190	0x3d08859e	0.033330552
191	0xbd5f4468	-0.054508597
192	0xbcf216a4	-0.029551812
193	0x3b8111d0	0.003938891
194	0xbd2551dd	-0.040361274
195	0x3d111ae7	0.035426047
196	0xbd565894	-0.05233057
197	0xbc8b5a6d	-0.017010892
198	0x3d20d507	0.03926566
199	0x3d5a1eba	0.05325196
200	0x3d3d64e4	0.046238795
201	0xbd47007b	-0.048584443
202	0x3c187013	0.009304064
203	0x3c344cd3	0.011004644
204	0x3cfbf985	0.030758629
205	0x3c1625e1	0.0091643045
206	0xbd1eb9ef	-0.03875154
207	0xbd53c671	-0.05170292
208	0x3d7cfd5e	0.061765067
209	0xbc90feba	-0.017699588
210	0x3d3a8919	0.045540903
211	0xbd3f17a9	-0.046653423
212	0x3c52bbd7	0.012862167
213	0xbd6dab07	-0.058024433
214	0x3d20875d	0.039191592
215	0x3d4cdc5b	0.050014835
216	0xbd67c4f1	-0.056584302
217	0x3bf8ba43	0.0075905635
218	0x3d023b92	0.031795092
219	0xbcb2bbd8	-0.021818087
220	0x3c3b5f12	0.011436241
221	0xbd809b77	-0.062796526
222	0x3d82dd32	0.06389846
223	0xbcf07fa6	-0.029357743
224	0xbd0ccc05	-0.034374256
225	0x3c2a9b29	0.01041297
226	0x3c3a5d31	0.011374758
227	0x3d2fb90a	0.042901076
228	0x3b8b8270	0.0042574927
229	0xbcfe8157	-0.031067533
230	0xbb3f32df	-0.0029174609
231	0xbcdaf04a	-0.026725907
232	0xbd481851	-0.048851315
233	0x3d5199b4	0.051171973
234	0xbce7c46c	-0.028291903
235	0xbc14d684	-0.009084348
236	0x3c375b0f	0.011191144
237	0xbd5a3c8a	-0.05328039
238	0x3c9c4982	0.01907802
239	0x3d9a79fc	0.07542798
240	0x3d9d46f3	0.07679548
241	0xbd4efb75	-0.050532777
242	0xbd3384e1	-0.043827895
243	0x3cf9787d	0.030452961
244	0x3c4c798f	0.012480154
245	0xba9aeac6	-0.0011819236
246	0xbcebd7c9	-0.028789418
247	0x3d38d6d7	0.045126762
248	0x3c3012a3	0.010746631
249	0x3ca2e23c	0.019883268
250	0x3beefae6	0.007293093
251	0xbd0278ee	-0.03185361
252	0xbd18db2a	-0.037318386
253	0xbc5a38b0	-0.013319179
254	0x3d0135db	0.0315455
255	0xbc9f4426	-0.019441675
